…
,"colab":{"base_uri":"https://localhost:8080/"},"executionInfo":{"status":"ok","timestamp":1676951834294,"user_tz":-540,"elapsed":43625,"user":{"displayName":"DK D","userId":"10687755219747411266"}},"outputId":"4b832e84-5016-441d-cbe9-2f691eb3cc80"},"execution_count":null,"outputs":[{"output_type":"stream","name":"stdout","text":["Model: \"sequential_4\"\n","_________________________________________________________________\n"," Layer (type)                Output Shape              Param #   \n","=================================================================\n"," conv2d_16 (Conv2D)          (None, 127, 87, 16)       48        \n","                                                                 \n"," batch_normalization_16 (Bat  (None, 127, 87, 16)      64        \n"," chNormalization)                                                \n","                                                                 \n"," max_pooling2d_16 (MaxPoolin  (None, 63, 43, 16)       0         \n"," g2D)                                                            \n","                                                                 \n"," dropout_16 (Dropout)        (None, 63, 43, 16)        0         \n","                                                                 \n"," conv2d_17 (Conv2D)          (None, 56, 43, 32)        4128      \n","                                                                 \n"," batch_normalization_17 (Bat  (None, 56, 43, 32)       128       \n"," chNormalization)                                                \n","                                                                 \n"," max_pooling2d_17 (MaxPoolin  (None, 28, 21, 32)       0         \n"," g2D)                                                            \n","                                                                 \n"," dropout_17 (Dropout)        (None, 28, 21, 32)        0         \n","                                                                 \n"," conv2d_18 (Conv2D)          (None, 27, 21, 64)        4160      \n","                                                                 \n"," batch_normalization_18 (Bat  (None, 27, 21, 64)       256       \n"," chNormalization)                                                \n","                                                                 \n"," max_pooling2d_18 (MaxPoolin  (None, 9, 7, 64)         0         \n"," g2D)                                                            \n","                                                                 \n"," dropout_18 (Dropout)        (None, 9, 7, 64)          0         \n","                                                                 \n"," conv2d_19 (Conv2D)          (None, 2, 7, 128)         65664     \n","                                                                 \n"," batch_normalization_19 (Bat  (None, 2, 7, 128)        512       \n"," chNormalization)                                                \n","                                                                 \n"," max_pooling2d_19 (MaxPoolin  (None, 1, 3, 128)        0         \n"," g2D)                                                            \n","                                                                 \n"," dropout_19 (Dropout)        (None, 1, 3, 128)         0         \n","                                                                 \n"," global_average_pooling2d_4   (None, 128)              0         \n"," (GlobalAveragePooling2D)                                        \n","                                                                 \n"," dense_12 (Dense)            (None, 64)                8256      \n","                                                                 \n"," dense_13 (Dense)            (None, 22)                1430      \n","                                                                 \n"," dense_14 (Dense)            (None, 4)                 92        \n","                                                                 \n","=================================================================\n","Total params: 84,738\n","Trainable params: 84,258\n","Non-trainable params: 480\n","_________________________________________________________________\n","Epoch 1/100\n","240/240 [==============================] - 7s 13ms/step - loss: 1.5570 - accu
…
kOa","colab":{"base_uri":"https://localhost:8080/"},"executionInfo":{"status":"ok","timestamp":1677159073275,"user_tz":-540,"elapsed":271,"user":{"displayName":"DK D","userId":"10687755219747411266"}},"outputId":"a64d54fe-be46-4275-8a5b-1e8416a711b1"},"execution_count":null,"outputs":[{"output_type":"stream","name":"stdout","text":["Model: \"sequential\"\n","_________________________________________________________________\n"," Layer (type)                Output Shape              Param #   \n","=================================================================\n"," conv1d (Conv1D)             (None, 43973, 16)         2064      \n","                                                                 \n"," batch_normalization (BatchN  (None, 43973, 16)        64        \n"," ormalization)                                                   \n","                                                                 \n"," max_pooling1d (MaxPooling1D  (None, 5493, 16)         0         \n"," )                                                               \n","                                                                 \n"," dropout (Dropout)           (None, 5493, 16)          0         \n","                                                                 \n"," conv1d_1 (Conv1D)           (None, 5430, 8)           8200      \n","                                                                 \n"," batch_normalization_1 (Batc  (None, 5430, 8)          32        \n"," hNormalization)                                                 \n","                                                                 \n"," max_pooling1d_1 (MaxPooling  (None, 675, 8)           0         \n"," 1D)                                                             \n","                                                                 \n"," dropout_1 (Dropout)         (None, 675, 8)            0         \n","                                                                 \n"," conv1d_2 (Conv1D)           (None, 420, 32)           65568     \n","                                                                 \n"," batch_normalization_2 (Batc  (None, 420, 32)          128       \n"," hNormalization)                                                 \n","                                                                 \n"," max_pooling1d_2 (MaxPooling  (None, 49, 32)           0         \n"," 1D)                                                             \n","                                                                 \n"," dropout_2 (Dropout)         (None, 49, 32)            0         \n","                                                                 \n"," conv1d_3 (Conv1D)           (None, 34, 32)            16416     \n","                                                                 \n"," batch_normalization_3 (Batc  (None, 34, 32)           128       \n"," hNormalization)                                                 \n","                                                                 \n"," max_pooling1d_3 (MaxPooling  (None, 17, 32)           0         \n"," 1D)                                                             \n","                                                                 \n"," dropout_3 (Dropout)         (None, 17, 32)            0         \n","                                                                 \n"," flatten (Flatten)           (None, 544)               0         \n","                                                                 \n"," dense (Dense)               (None, 32)                17440     \n","                                                                 \n"," dropout_4 (Dropout)         (None, 32)                0         \n","                                                                 \n"," dense_1 (Dense)             (None, 4)                 132       \n","                                                                 \n","=================================================================\n","Total params: 110,172\n","Trainable params: 109,996\n","Non-trainable params: 176\n","_________________________________________________________________\n"]}]},{"cell_type":"code","source":["audio_model.save(\"/content/drive/MyDrive/Startup_Hackatho
…
