…
","colab":{"base_uri":"https://localhost:8080/"},"executionInfo":{"status":"ok","timestamp":1676111173735,"user_tz":-540,"elapsed":744222,"user":{"displayName":"DK D","userId":"10687755219747411266"}},"outputId":"698096a6-9f59-4a65-8441-3bca35854c61"},"execution_count":null,"outputs":[{"output_type":"stream","name":"stdout","text":["Model: \"sequential\"\n","_________________________________________________________________\n"," Layer (type)                Output Shape              Param #   \n","=================================================================\n"," conv2d (Conv2D)             (None, 127, 258, 16)      80        \n","                                                                 \n"," max_pooling2d (MaxPooling2D  (None, 63, 129, 16)      0         \n"," )                                                               \n","                                                                 \n"," dropout (Dropout)           (None, 63, 129, 16)       0         \n","                                                                 \n"," conv2d_1 (Conv2D)           (None, 62, 128, 32)       2080      \n","                                                                 \n"," max_pooling2d_1 (MaxPooling  (None, 31, 64, 32)       0         \n"," 2D)                                                             \n","                                                                 \n"," dropout_1 (Dropout)         (None, 31, 64, 32)        0         \n","                                                                 \n"," conv2d_2 (Conv2D)           (None, 30, 63, 64)        8256      \n","                                                                 \n"," max_pooling2d_2 (MaxPooling  (None, 15, 31, 64)       0         \n"," 2D)                                                             \n","                                                                 \n"," dropout_2 (Dropout)         (None, 15, 31, 64)        0         \n","                                                                 \n"," global_average_pooling2d (G  (None, 64)               0         \n"," lobalAveragePooling2D)                                          \n","                                                                 \n"," dense (Dense)               (None, 5)                 325       \n","                                                                 \n","=================================================================\n","Total params: 10,741\n","Trainable params: 10,741\n","Non-trainable params: 0\n","_________________________________________________________________\n","Epoch 1/500\n","18/18 [==============================] - 14s 82ms/step - loss: 3.7216 - accuracy
…
