…
","colab":{"base_uri":"https://localhost:8080/"},"executionInfo":{"status":"ok","timestamp":1676609864504,"user_tz":-540,"elapsed":142987,"user":{"displayName":"DK D","userId":"10687755219747411266"}},"outputId":"bb3118c2-c6e1-4273-edd2-469ceb874a77"},"execution_count":null,"outputs":[{"output_type":"stream","name":"stdout","text":["Model: \"sequential\"\n","_________________________________________________________________\n"," Layer (type)                Output Shape              Param #   \n","=================================================================\n"," conv2d (Conv2D)             (None, 127, 86, 16)       80        \n","                                                                 \n"," max_pooling2d (MaxPooling2D  (None, 63, 43, 16)       0         \n"," )                                                               \n","                                                                 \n"," dropout (Dropout)           (None, 63, 43, 16)        0         \n","                                                                 \n"," conv2d_1 (Conv2D)           (None, 62, 42, 32)        2080      \n","                                                                 \n"," max_pooling2d_1 (MaxPooling  (None, 31, 21, 32)       0         \n"," 2D)                                                             \n","                                                                 \n"," dropout_1 (Dropout)         (None, 31, 21, 32)        0         \n","                                                                 \n"," conv2d_2 (Conv2D)           (None, 30, 20, 64)        8256      \n","                                                                 \n"," max_pooling2d_2 (MaxPooling  (None, 15, 10, 64)       0         \n"," 2D)                                                             \n","                                                                 \n"," dropout_2 (Dropout)         (None, 15, 10, 64)        0         \n","                                                                 \n"," conv2d_3 (Conv2D)           (None, 14, 9, 128)        32896     \n","                                                                 \n"," max_pooling2d_3 (MaxPooling  (None, 7, 4, 128)        0         \n"," 2D)                                                             \n","                                                                 \n"," dropout_3 (Dropout)         (None, 7, 4, 128)         0         \n","                                                                 \n"," global_average_pooling2d (G  (None, 128)              0         \n"," lobalAveragePooling2D)                                          \n","                                                                 \n"," dense (Dense)               (None, 4)                 516       \n","                                                                 \n","=================================================================\n","Total params: 43,828\n","Trainable params: 43,828\n","Non-trainable params: 0\n","_________________________________________________________________\n","Epoch 1/200\n","158/158 [==============================] - 14s 17ms/step - loss: 1.9877 - accura
…
